dataset/cnn_actor_model.pth (torch, 121842 bytes, 12 tensors)

actor_cnn.0.weight f4 [16, 2, 3, 3]
000000 19 57 bc 3d f6 74 d4 3b 4d b0 2e 3d 60 d8 b5 bf
       0.091963 0.0064836694 0.042648602 -1.4206657
000010 3b 90 77 3f c4 e0 9b 3c bd f6 87 3e 1e 43 fb be
       0.96704453 0.019028075 0.26555434 -0.49074644
000020 fe 6d 8c be 8b fc af 3e 99 d4 8b 3f ad e8 82 be
       -0.27427667 0.34372362 1.0924255 -0.25568143
000030 6a fd b3 bf 6f bf e2 bf 07 15 38 3e 0c b1 a4 3e
       -1.4061711 -1.7714671 0.17976771 0.32166326
000040 e1 f5 dd be 14 0d 8f be 8f 54 78 3c a3 dd c9 3b
       -0.43351653 -0.27939665 0.015156879 0.0061604544
000050 4d c5 57 3d 89 54 10 be f5 b1 c0 bc 4a f0 72 bd
       0.052678395 -0.14094748 -0.023522357 -0.05931119
000060 e3 8f 68 3f 06 6d 73 bd 57 af 64 3b f9 a6 f8 3f
       0.90844554 -0.059430145 0.003489455 1.9425956
000070 26 9e bf bc 0a a9 48 3d cd 5a 2d c0 d2 9e 99 bc
       -0.02339084 0.048989333 -2.708667 -0.01875249
000080 7f 8a 85 3c c1 e6 89 3e 53 32 7b bc 37 b2 a5 bc
       0.016301392 0.26933864 -0.015331822 -0.020226581
000090 65 38 84 3d 25 4f 0b bf 7f 76 03 3e aa dc d3 bd
       0.06456069 -0.5441764 0.12838171 -0.10344823
0000a0 63 cf 73 3f 4b e2 ec bc 32 f5 b0 3d 4f 0f 9a bf
       0.9523832 -0.028916499 0.08640517 -1.2035922
0000b0 16 fe 9c 3c 17 ec c3 bb ee dd 42 3e 11 f4 ca bc
       0.019164126 -0.005979072 0.19029972 -0.024774583
0000c0 a0 4d a0 3d 9f 11 b9 bf d9 cf 1f 3c 7b 8f 98 3d
       0.07827306 -1.4458503 0.009754145 0.07449242
0000d0 c6 30 c9 3f ed 5a a0 3d a5 12 06 40 0c 15 8b 3b
       1.571801 0.07829843 2.094888 0.0042444523
0000e0 fd 07 a3 bb 47 3f d3 bf 60 15 8b ba b6 bd d4 3c
       -0.0049753175 -1.6503686 -0.0010611229 0.025969367
0000f0 47 4f ac be b0 aa e3 3c 83 89 31 bd 9a ea fb 3e
       -0.33654234 0.027791351 -0.043344032 0.49202424
000100 3a cd 2a 3b fb 72 24 3d c6 fc 84 3f c2 a5 5d 3d
       0.0026062266 0.040148716 1.038964 0.054113157
000110 7a 96 85 bc 78 a6 39 bf 7a b2 57 3d 0c b1 d8 3c
       -0.016307104 -0.72519636 0.052660443 0.02645161
000120 ca 3d 80 3f df d0 5b bf 35 4e 00 be 99 f2 b7 bf
       1.0018857 -0.85865587 -0.12529834 -1.437091
000130 56 18 ed 3f 13 d0 8a bd 8a f8 37 3f 24 35 12 3f
       1.8523052 -0.06777968 0.71863616 0.57112336
000140 51 23 1f bd 8a cd 3a 3f 77 9b ca 3a 25 74 87 3d
       -0.03885204 0.7296988 0.0015457709 0.0661395
000150 0f a4 03 3e fe aa 49 bf 84 79 e9 bd 74 c1 7b be
       0.12855552 -0.7877654 -0.114001304 -0.24585515
000160 43 2a 99 bf c1 fb 71 3e 48 cf 85 3e bc ed 44 bd
       -1.1966022 0.23631193 0.26134706 -0.048078284
000170 1e ce 9e 3d a7 12 1c c0 d8 a5 79 bc a4 80 64 3c
       0.077541575 -2.4386384 -0.015237294 0.013946686
000180 d3 91 d9 3f b9 eb 0b 3d 91 c6 7d 3d f0 9f c4 bf
       1.6997627 0.03416035 0.061956946 -1.5361309
000190 31 38 fa 3c 08 e1 a0 bc d1 4a 46 3f d3 10 6d bd
       0.030544372 -0.019638553 0.7745791 -0.057877373
0001a0 e8 3b 57 3d 69 ce 23 3f 50 02 39 3d c9 ec 31 3d
       0.052547365 0.6398683 0.04516822 0.043438707
0001b0 89 c0 b2 bd 73 15 9c bf 6a a7 19 bd f0 45 3f bc
       -0.087281294 -1.2194046 -0.037513174 -0.011674389
0001c0 e6 61 e4 3f ad 27 b3 bd fa 32 7a bd c9 08 81 be
       1.7842376 -0.08747802 -0.06108377 -0.25202015
0001d0 ca a6 98 bc 75 f5 55 bb b0 e5 b6 3d c2 36 0a bd
       -0.018634219 -0.0032647524 0.08930528 -0.033743627
0001e0 cb ab a5 3d d6 d0 58 3f 36 a7 4e bb ad 10 db bc
       0.080894075 0.8469366 -0.003153277 -0.02674135
0001f0 64 55 c2 bf 10 dd 35 bd 0f 22 5d 3f 41 88 2a bf
       -1.5182309 -0.044400275 0.86380094 -0.66614157
000200 90 9b dc 3e a8 c7 da bf 4b 07 67 3f bb 7c 26 bf
       0.43087435 -1.709218 0.90245503 -0.65034074
000210 32 1a 4c 3f 6f 8c d5 bc dd c6 8d 3e 03 4f 93 be
       0.7972747 -0.02606794 0.27690783 -0.2877122
000220 ad b8 92 bf 56 89 03 3e f0 f3 d0 3d 8a 73 9f 3f
       -1.1462609 0.12845358 0.102027774 1.2457135
000230 34 b6 71 3e 26 23 1e 3f 6b dc 02 bf 26 76 8a be
       0.23604661 0.6177238 -0.5111758 -0.27043265
000240 92 c8 e8 be fe a7 cd 3f d0 72 46 3e 76 44 11 3e
       -0.45465523 1.6066892 0.19379735 0.14186272
000250 d0 9c b9 bf ef d0 89 be 65 15 2e 3f 61 7f d4 bd
       -1.450098 -0.26917216 0.68001395 -0.10375858
000260 f4 f8 3b bd 9e 3b 3d 3f 53 24 a5 bd 90 3a ae 3d
       -0.045891717 0.73919094 -0.08063569 0.08507264
000270 f2 6a 8c be b8 86 d1 3f ad 8f 13 bd 69 f8 95 3f
       -0.27425343 1.6369238 -0.03602569 1.1716434
000280 18 c3 ad bf ae 0c 69 be 2b 77 84 bd bc ae 7e 3e
       -1.3575163 -0.22758743 -0.06468042 0.24871343
000290 ab 04 a1 bb a7 25 a7 bd c5 2b 04 c0 c4 15 04 be
       -0.0049138865 -0.081614785 -2.0651715 -0.12898928
0002a0 e1 f6 c0 3c 3d 07 ac 3f 16 fc 53 bd f7 e0 5b bd
       0.023555221 1.3439709 -0.05175408 -0.05368134
0002b0 f1 ac d1 bf 51 bb 21 bd ca 20 a3 3b 0d eb 2d 3f
       -1.6380903 -0.03948528 0.004978274 0.67936784
0002c0 b1 14 1e bd b6 38 58 3d 8f 78 04 3f e4 e8 e3 bc
       -0.03859395 0.05278846 0.5174646 -0.027821012
0002d0 bb 01 42 3f 6a e7 88 3f 9c 27 8f bb 34 c4 fc be
       0.7578389 1.0695622 -0.0043687355 -0.4936844
0002e0 02 03 0f c0 78 c6 4a 3d 26 40 e4 be c5 b8 93 3f
       -2.2345586 0.04950568 -0.4458019 1.1540762
0002f0 c4 ef 35 bd 4c 58 86 3f ae 17 3c bf 5f 92 8b bd
       -0.04441811 1.0495696 -0.7347363 -0.068150274
000300 b6 4d c8 bf f4 1e 29 3f 99 8e 4a bd 3a 1e 4b 3f
       -1.5648715 0.66062856 -0.049452398 0.79343
000310 04 8d 20 be 71 a8 dd 3c 11 87 db be d5 5b 41 bf
       -0.15678793 0.027057858 -0.42876485 -0.7553075
000320 40 6d 91 bd 32 30 10 3f ed 13 22 bd 7c 76 aa 3d
       -0.07100916 0.5632354 -0.039569784 0.0832338
000330 fc 0b 1a be ec 5c e9 be 58 5f a1 bd 13 b5 9b 3e
       -0.15043634 -0.45578706 -0.078795135 0.30411586
000340 f1 8b 8b 3f 2a 10 44 be 3e 0a f5 3e 20 dd 5e bf
       1.0902082 -0.19146791 0.47859377 -0.8705616
000350 c0 c3 b5 3d 84 db c6 38 a1 9f 6b be 24 d5 40 be
       0.08875227 9.482264e-05 -0.23010112 -0.18831307
000360 8a 31 2f 3d 8a 29 b4 bb a0 e3 51 3e a7 24 19 bc
       0.042771854 -0.005498116 0.20496988 -0.0093471175
000370 12 32 0f bf 5b 32 87 3e 78 19 b6 3d 75 bc 9d 3f
       -0.55935776 0.26405606 0.088915765 1.2323138
000380 6f f1 d8 bd 69 d2 fa bb 76 76 f4 3f 6f a2 97 3d
       -0.10592925 -0.0076544774 1.9098651 0.074040286
000390 fd c8 7d 3d 5f 81 10 c0 da 72 36 3e 6e c9 d6 bc
       0.061959255 -2.2578962 0.1781725 -0.026219096
0003a0 35 4f fc 3e 6d 8e 0c 3e 70 e4 9e 3e 9b 01 b9 be
       0.4927918 0.13726206 0.3103366 -0.36134037
0003b0 38 e1 e2 bd 97 bf 5f bf c0 47 11 3f b5 55 b4 3d
       -0.11078113 -0.8740172 0.56750107 0.0880541
0003c0 b9 e9 46 3f 9f 3d e7 be 35 5a 4f be 69 3e b0 3b
       0.7770038 -0.451642 -0.20249255 0.0053785336
0003d0 c2 eb 86 3d 5e 0d a8 3d 66 7d 9c 3b 9c f2 c8 bd
       0.06587936 0.082056746 0.004775691 -0.09811899
0003e0 33 01 88 bd cb 2d fb 3d ba 58 8c 3f dd f1 b3 3d
       -0.06640854 0.12264594 1.0964577 0.08786366
0003f0 1a 03 a3 3d 25 cf 61 be d7 6c 34 3d 1a db 56 3c
       0.07959576 -0.22051676 0.04404911 0.013113761

actor_cnn.0.bias f4 [16]
000000 9d 27 80 c1 a5 a4 03 be c7 91 a9 bd 61 27 14 be
       -16.019342 -0.12855776 -0.08279758 -0.14468147
000010 09 0a 21 c1 8c 2a b0 bd c0 f4 16 bd 93 09 ab c1
       -10.06495 -0.08601865 -0.036854506 -21.379675
000020 e8 db e2 c0 3d d3 c2 bd b9 9e bd bf 82 0e ba c1
       -7.089344 -0.09512947 -1.4814063 -23.257084
000030 90 ca b1 bd e5 0a b6 c1 4f db 8e c1 76 62 f3 bd
       -0.08681214 -22.75532 -17.857084 -0.11884014

actor_cnn.3.weight f4 [32, 16, 3, 3]
000000 47 0c 23 be 09 15 1b 3e b4 a2 d8 3b 73 c5 99 be
       -0.15922652 0.15144743 0.0066111926 -0.30033454
000010 b7 21 ff be 5a 7d b9 be 3c 8b e7 be 99 e7 b3 be
       -0.4983041 -0.36228448 -0.45223415 -0.35137632
000020 b1 4a c1 be e3 2e 14 be ae f9 b1 be 89 e0 cd bc
       -0.37752298 -0.14471011 -0.34760803 -0.02513148
000030 ed 35 b2 be 30 55 c9 be a7 6e 01 bf dd de 8c be
       -0.34806767 -0.39322805 -0.5055947 -0.2751378
000040 8c 91 4a bd 19 6a a8 be e9 b7 86 be 01 26 fd be
       -0.04945521 -0.32893446 -0.26312187 -0.49443057
000050 87 a2 ea be 77 75 a2 be fa 2e cb be 66 01 1a bf
       -0.45827124 -0.31730244 -0.39684278 -0.60158384
000060 1d 29 0b be 47 32 d4 be 31 51 15 bf fa 55 c3 be
       -0.13589902 -0.4144461 -0.58327013 -0.38151532
000070 4a 45 13 bf 44 c7 ad be 95 d3 6e bf 44 cc b6 be
       -0.575276 -0.3394109 -0.932916 -0.35702717
000080 38 10 bf be b8 41 ae be cd 62 92 be 4c c1 38 bf
       -0.3731706 -0.34034514 -0.28591004 -0.7216995
000090 31 35 f1 be 6a 36 1f 3e 40 40 b3 bc 90 c1 b8 be
       -0.47110894 0.15548101 -0.021881223 -0.36085176
0000a0 f7 39 ac bd 0d d9 64 be 1d 8b 6e bd 78 9e a0 3e
       -0.084094934 -0.22348423 -0.058238138 0.31370902
0000b0 b9 4b 98 3c a1 2f c2 3d 4c 41 f1 be d1 0c 4c be
       0.018590795 0.09481741 -0.4712013 -0.19926764
0000c0 1a 90 a9 be e7 a5 f8 be 55 71 b7 be b4 74 0b bf
       -0.33117753 -0.48564073 -0.35828653 -0.5447495
0000d0 65 6c be be 32 60 a2 be ab b8 8c be a0 50 0e 3e
       -0.37192073 -0.31714016 -0.2748464 0.13897943
0000e0 a0 bc 81 be be d4 c9 bd 93 88 13 bf eb 80 1b bf
       -0.25339222 -0.098550305 -0.5763027 -0.6074359
0000f0 d0 a3 0c be aa 61 05 bf 6b ae 19 bf 49 b8 e4 be
       -0.13734365 -0.5210215 -0.60031766 -0.44671848
000100 c9 55 e9 bd fc 74 d1 bc 29 df 1f be 4b 53 8f bc
       -0.11393315 -0.025568478 -0.15612473 -0.017495772
000110 09 01 c4 bd 66 cf 52 bf 2f 13 b8 3e 04 fb f3 bd
       -0.0957051 -0.82347715 0.35952136 -0.11913112
000120 43 5b ed 3d 26 1d 59 bd 3a 09 50 bd b9 49 09 be
       0.115896724 -0.053006314 -0.05079005 -0.13407029
000130 34 1f c9 3e 7a 75 02 be 3e 0f d3 bd ad 5c f3 bb
       0.3928162 -0.12740126 -0.103056416 -0.0074268193
000140 3d 68 21 3c 3e e8 c9 bd 1f 83 ae be df 5f ae be
       0.0098515125 -0.0985875 -0.34084412 -0.3405752
000150 0d d0 cf be 7f 48 a9 be 08 e6 84 be d9 4e 56 bf
       -0.40588418 -0.33063123 -0.2595675 -0.8371406
000160 d5 72 2a 3d 80 85 c5 be d6 51 a0 be e1 9e 9e 3c
       0.04161342 -0.38578415 -0.31312436 0.019362869
000170 3b 82 cd 3d c8 73 51 be 79 46 eb be ee 32 da be
       0.10034605 -0.20454323 -0.45952204 -0.4261698
000180 a5 02 af be 17 0f d5 be 57 53 20 bf a8 5d 8e 3d
       -0.34181705 -0.41613075 -0.62627167 0.06951457
000190 1e 3f 4a 3e e5 9d 19 bd 89 b2 1e be f3 0e 5a be
       0.1975064 -0.037504096 -0.15497793 -0.21294765
0001a0 34 3c 3d be 9b 2c 8e be 78 99 84 be a9 fe ed be
       -0.18479997 -0.27768406 -0.25898337 -0.46483353
0001b0 ea 06 23 be 51 f2 40 be 92 59 34 be 80 57 48 bf
       -0.15920606 -0.18842436 -0.17612293 -0.78258514
0001c0 ce a4 09 be 9b a9 f5 be 97 29 7e be 8b 22 42 bf
       -0.13441774 -0.4798096 -0.24820553 -0.7583396
0001d0 11 57 f0 be dd c7 d9 be fe 87 f9 bd 50 de 9f bd
       -0.46941426 -0.42535296 -0.121841416 -0.078060746
0001e0 10 91 d7 be c9 3b c6 be 1b d5 c2 be 61 ce be be
       -0.4210286 -0.38717487 -0.38053212 -0.3726683
0001f0 25 ec 42 be 59 73 b9 be b4 6d 16 3d 20 90 b1 bd
       -0.19035394 -0.36220816 0.036725715 -0.08670068
000200 f6 1c d0 bd 8a 17 9c 3e d3 2f a0 be d5 8a 90 be
       -0.10161774 0.3048671 -0.31286487 -0.2823092
000210 c7 93 73 be 62 e7 8d be 24 46 98 be bf 2e 00 bf
       -0.23786841 -0.27715594 -0.29741013 -0.5007133
000220 3f 18 30 bf 65 84 a6 bd 2a b0 72 bf 87 2b 7f be
       -0.68786997 -0.08130721 -0.94800055 -0.24918948
000230 f1 d3 b8 be 40 78 bc be 4d 1d 03 bf 19 c2 32 bf
       -0.36099198 -0.36810493 -0.51216584 -0.6982742
000240 6b 16 a5 bd d4 a9 a7 be 2f 00 df be d3 5e c0 bd
       -0.080609165 -0.32746756 -0.43554828 -0.09393086
000250 38 d3 8f be 3a cb 97 bd 30 a1 4b 3a c9 9a 25 be
       -0.28090835 -0.07411809 0.0007767854 -0.16172327
000260 c8 da 86 be 0d 71 84 be ee e9 bb be dd 14 ec be
       -0.26338792 -0.258675 -0.36701912 -0.46109667
000270 d1 15 f7 bd 1b f6 c5 be 2d 08 08 bf be 13 31 be
       -0.12064708 -0.38664326 -0.53137475 -0.17292687
000280 87 46 21 bc fc 4b d9 bd 58 8b 97 be 2d 13 81 be
       -0.009843475 -0.10610196 -0.29598498 -0.25209942
000290 a9 aa 72 be 6a 10 1e be f3 fa a2 be fc 4f a8 bd
       -0.23697914 -0.15435949 -0.31832084 -0.08218381
0002a0 ce c1 99 bd db 46 00 be a4 49 90 be 1e f4 b1 be
       -0.075076684 -0.12527029 -0.28181183 -0.3475656
0002b0 ff 73 8c be 1c 44 86 be 0a 7d a3 be 37 12 11 bf
       -0.27432248 -0.26223838 -0.31931335 -0.5666842
0002c0 78 bf a5 be 69 f4 cc bd 09 58 07 bf d4 d8 a8 be
       -0.32372642 -0.10007555 -0.52868706 -0.32977927
0002d0 a1 91 b7 ba c5 c5 6d be d4 d2 90 be 2c ea 4a bd
       -0.0014005193 -0.23219974 -0.2828585 -0.04953973
0002e0 84 b6 dc 3d af 2a 86 be 6b bc 16 be 46 a7 e3 3d
       0.107769996 -0.2620444 -0.14720313 0.11115889
0002f0 95 99 8f be 6a 92 91 be f7 79 c1 be 01 53 ea be
       -0.2804686 -0.28432018 -0.37788364 -0.45766452
000300 8d 08 3f be 5d 12 f3 be 8a 45 67 be d0 55 64 bd
       -0.18655606 -0.47474948 -0.22585121 -0.0557459
000310 1d 03 08 bf 16 45 64 be 2b 45 17 be 44 93 31 be
       -0.5312975 -0.22291979 -0.14772479 -0.17341334
000320 27 a0 15 be 38 16 34 be 69 0a 06 be 3a 8c 60 be
       -0.14611875 -0.17586601 -0.13089909 -0.21928492
000330 1b 94 64 be 03 83 21 be 5e c9 90 be 20 99 14 bd
       -0.22322123 -0.15772633 -0.2827863 -0.036278844
000340 e7 1b a7 bc 54 95 af be 75 df bd bd 23 32 a6 3d
       -0.020399047 -0.34293616 -0.09271137 0.081150316
000350 f1 65 af be 8f 4b 5d bd 44 0f 60 bd b8 c3 cc be
       -0.34257463 -0.054027136 -0.05470206 -0.39993072
000360 40 dc bc bd ce 68 9d be 8a 84 30 bf a7 05 e9 bd
       -0.09221697 -0.30744022 -0.6895224 -0.11378031
000370 87 50 2e be 17 ac d4 be 5c e9 23 3c 8a 24 e0 bd
       -0.17022906 -0.41537544 0.010004368 -0.10944469
000380 cb 4b ba be 5e 25 d4 bd 10 ab 2b 3d 29 1d a6 be
       -0.3638595 -0.1035869 0.041911185 -0.32444122
000390 b0 cb 4c be 52 2a 9d bd 58 a6 97 be 14 cd 05 be
       -0.19999576 -0.076740876 -0.29619098 -0.13066512
0003a0 12 e3 1f bd a9 e8 17 be bb 2b 96 be dc fa 6c bc
       -0.03903491 -0.14834847 -0.2933024 -0.014464106
0003b0 09 00 06 bf b3 24 b9 bd ef 71 ae be d9 17 64 be
       -0.52343804 -0.09040203 -0.340713 -0.22274722
0003c0 9b 41 0a be ed c1 18 3e 3a 0e ee be db d1 19 3c
       -0.13501589 0.14917727 -0.4649523 0.009388412
0003d0 f7 6d de be a3 16 9f be a8 6f 6c be 38 ed e6 be
       -0.43443272 -0.31071958 -0.23089468 -0.4510286
0003e0 25 ee ff be b0 5c 12 be 56 1b 04 bf fa b4 44 bd
       -0.49986377 -0.1429317 -0.5160421 -0.048024155
0003f0 f3 84 3e be fe 56 ea be 47 ad 5c be 86 09 da be
       -0.18605404 -0.45769495 -0.21550475 -0.4258539

actor_cnn.3.bias f4 [32]
000000 c6 5c f0 be 65 aa b8 be a8 dc c7 be b2 ab e4 bd
       -0.4694578 -0.360675 -0.39035535 -0.11165561
000010 b5 5a 93 3f 58 e7 88 bf 96 e8 be be 50 41 82 bf
       1.1512057 -1.06956 -0.37286824 -1.0176182
000020 99 cc df be c5 6e ea be 65 43 1a 3f 16 1d b8 be
       -0.43710783 -0.45787635 0.60259086 -0.3595969
000030 77 59 13 bf c9 c0 aa bd a3 6a 2d bf 85 64 2c bf
       -0.5755839 -0.08337552 -0.6774084 -0.6734088
000040 2b ab ed 3f 7e 3c 43 bf d8 1c 79 be ea 0d 53 be
       1.8567861 -0.7626418 -0.2432741 -0.20610777
000050 75 ab 32 be ad 9a 83 40 ed ba 26 40 3e bf 0c be
       -0.17448218 4.1126313 2.605159 -0.13744828
000060 a8 6f 23 bf 07 88 17 40 fc 11 08 be fa 18 8c bf
       -0.6384225 2.3676775 -0.1328811 -1.0945122
000070 49 b0 59 40 6e c6 0c be dd 15 af be ec 76 09 40
       3.4013846 -0.1374757 -0.34196368 2.1478834

actor_mlp.0.weight f4 [64, 256]
000000 f6 fe 81 3e 31 bd f5 bd ad 65 7a bd ff a8 49 3e
       0.25389832 -0.11998976 -0.06113212 0.19693373
000010 1c cf 3b 3e 0a cd 80 3e 58 28 33 bd f2 4f 0c 3f
       0.18340725 0.25156432 -0.043739647 0.54809487
000020 23 e6 6b bd cb 1b 22 bd 88 04 9a 3e 10 c6 6d be
       -0.057592522 -0.039577287 0.30081582 -0.23220086
000030 af 88 cf bd 97 2e af bd 0f ca b1 bd ee 4f 6d 3c
       -0.10133492 -0.08553808 -0.08681118 0.014484389
000040 c8 d5 2c 3e d6 1a 9d 3c 4c 65 e4 3d 67 4c 23 be
       0.16878426 0.019177835 0.11152133 -0.15947114
000050 e3 a2 e1 3e 1c f5 78 be cc e6 94 3e 98 38 ea bd
       0.44069585 -0.24312252 0.29082334 -0.11436576
000060 cb 0f d9 3d 46 8a 8b 3d aa 51 cd 3d 7a d9 be bd
       0.105987154 0.06813483 0.10025342 -0.09318824
000070 cc 34 dd 3d 4c 7b 09 bc 6c dc 14 bb 39 14 2b 3d
       0.10801086 -0.008391213 -0.002271439 0.041767333
000080 7f 64 e8 3d fd 07 d6 3d 09 70 ff 3d ea f4 d8 3e
       0.11347293 0.104507424 0.12472541 0.42374355
000090 85 60 2c be e0 3e b8 3e 34 32 ec 3c b0 52 d0 3f
       -0.16833694 0.3598547 0.028832532 1.6275234
0000a0 51 b0 46 3e 83 34 49 3e b1 ea 14 be fe 86 71 bd
       0.19403197 0.19648938 -0.14542653 -0.05896663
0000b0 87 00 4b 3e 34 e6 5c 3d ae f3 e9 3d c9 17 75 be
       0.1982442 0.053930476 0.11423431 -0.23934855
0000c0 e8 c8 0e bd 29 7f 72 bc 8b ac b6 bc f1 35 fb 3c
       -0.034859568 -0.014800825 -0.022299072 0.03066537
0000d0 3d 47 bb 3c c4 0b bf bc 70 20 15 be 6a 07 2f 3d
       0.022861117 -0.02332104 -0.14563155 0.04273168
0000e0 8b 79 87 3d d3 18 89 3e 82 76 79 be cc 27 56 be
       0.06614979 0.26776752 -0.24361613 -0.20913619
0000f0 ca 0a 5d bd 47 7b ec bd fb d3 94 3d 59 ec f6 3c
       -0.053965367 -0.11546951 0.072669946 0.030141996
000100 03 07 df bc 05 ed fc bc 91 23 7d bc dc cd 28 bc
       -0.027225023 -0.030874738 -0.015450374 -0.010302987
000110 f4 55 7b 3e 87 4e 1d 3e 47 97 ba be 63 df 54 bd
       0.24544507 0.15361987 -0.3644354 -0.05197085
000120 ef b6 92 bc 84 23 cb 3b 8e a2 13 3d cd 44 85 bc
       -0.017909495 0.006199302 0.036043696 -0.016268158
000130 9e e4 c7 bd aa ff 13 39 0c fd 97 3e f0 06 cc bd
       -0.09760402 0.00014114255 0.29685247 -0.09962261
000140 43 b4 bf 3e bb aa 0b 3f 19 33 af bd c7 c3 fc 3f
       0.37442216 0.5455739 -0.08554668 1.9747247
000150 da d3 87 3e 86 07 db be d3 c8 23 3f e9 6c 27 be
       0.26528817 -0.42779177 0.6397831 -0.1635014
000160 e9 de c6 bb 1a 41 01 3d 93 e4 b8 3c ef 2f e2 bb
       -0.0060690534 0.031556226 0.02256993 -0.006902687
000170 20 72 ae bd 21 e4 86 bd ea f3 a2 3e 9e ac 3e 3d
       -0.08517861 -0.06586481 0.31826717 0.04655134
000180 f7 f1 a8 be e4 00 a2 be 21 23 ed 3e e2 2b 22 be
       -0.32997105 -0.31641304 0.46315864 -0.15837052
000190 57 c6 7b bf 7c 5d 07 be 42 01 ec be a9 eb 64 3e
       -0.9834952 -0.13219255 -0.4609471 0.22355522
0001a0 2c 2d 4e bc 09 97 c8 3d 87 66 d7 3b 46 d5 3d 3d
       -0.012584012 0.09794433 0.0065735015 0.04634597
0001b0 9e 51 a6 bd 4f d2 61 3d bf c5 ad bc 6f da 5e 3c
       -0.08121036 0.055132207 -0.021212457 0.013601883
0001c0 8e 79 ec bd 8e b0 0e 3e c8 4a 5c be ac e1 ae 3d
       -0.11546622 0.13934538 -0.21512902 0.08539137
0001d0 dc 4d 64 be 6a 1a ad be 9b ea c1 be 84 de 5a bb
       -0.22295326 -0.33809215 -0.37874302 -0.003339679
0001e0 b4 8f 1c 3c 5c 61 39 bd 7d 29 8f be 2d f8 db 3b
       0.009555746 -0.045258865 -0.2796134 0.0067129345
0001f0 1a 92 7b 3e 74 c8 3a ba da a6 9f bd 81 ed 86 bd
       0.24567452 -0.0007125207 -0.07795496 -0.06588269
000200 99 ec 62 3d 6a 28 3d 40 e1 ea a8 bf 43 9d 51 bf
       0.05540142 2.9555917 -1.3196679 -0.8188059
000210 8e 5d ba be cb eb 82 3f ad 83 53 c0 e5 f8 92 3e
       -0.36399502 1.0228208 -3.3049119 0.28705516
000220 21 dc 0b bd 8a 41 fe 3e c7 67 e2 3d 86 f9 89 be
       -0.03414548 0.49659377 0.1105495 -0.26948184
000230 e4 60 c3 bc 30 14 0c be 47 2d 0b bd 54 d8 8d be
       -0.023849912 -0.13679576 -0.033978727 -0.27704108
000240 e8 53 6e bb 90 3e 57 3c 95 8d 0b bc 53 62 ae 3c
       -0.003636593 0.013137475 -0.0085176425 0.021287119
000250 35 92 f0 bd 29 28 13 bd f9 5e 9b be 75 b6 ef 3c
       -0.11746637 -0.03592697 -0.30345896 0.029261807
000260 e5 5a d7 3b 47 a4 0c 3e 4c 37 e7 bd ce ec f9 3d
       0.006572115 0.13734542 -0.11289844 0.1220337
000270 7f ba f8 3c ab 35 5d 3d fd 6c 40 bd e9 18 f5 bc
       0.030362366 0.05400626 -0.04697894 -0.029919105
000280 39 de 94 bd 77 9c 96 bd ac 7e aa 3d a5 83 63 bd
       -0.07268948 -0.07354062 0.08324942 -0.055545468
000290 ff 3d d0 bc e7 4c fb 3d e0 53 af 3e bb 08 70 3c
       -0.025420187 0.12270527 0.3424368 0.014650519
0002a0 b2 71 cf be fc 3f 96 3e b9 e6 3a 3e 2d 64 24 be
       -0.4051643 0.2934569 0.18252076 -0.16053839
0002b0 32 a0 0d be f4 f7 9f 3e c8 4e 3c 3e 3b 6d 43 bd
       -0.13830641 0.3124386 0.18389428 -0.047711592
0002c0 2e aa b4 3d 37 36 35 3f cf ba 33 be 89 e0 62 be
       0.08821522 0.7078585 -0.1755173 -0.22155966
0002d0 02 fc 73 bb d2 60 7b 3f 91 fc 35 bf ae 06 01 bf
       -0.0037229066 0.9819461 -0.7108851 -0.5040082
0002e0 cb e4 18 3e 97 78 37 3e 50 a6 fe bd 2b 5d fc bd
       0.14931028 0.17917095 -0.12434065 -0.12322458
0002f0 4c 5e e0 3d c5 98 17 3d 77 58 82 3d 1a 30 8a 3d
       0.10955486 0.037010927 0.063645296 0.06747456
000300 b3 cf 82 3e 53 c8 ee bc 7a f5 a4 3e c5 c3 a3 be
       0.25549087 -0.029148256 0.32218534 -0.31985298
000310 c4 fc 95 be c5 16 c2 bd 30 a7 43 be 83 3b ea 3e
       -0.29294407 -0.09476999 -0.19106746 0.4574853
000320 30 0b 86 3f 7f e3 7e bf aa 60 9d be 87 d6 6c 3d
       1.0472164 -0.9956588 -0.3073781 0.057821777
000330 4b e1 af 3e 72 58 16 bf 7a ec 9a be a7 ac 66 be
       0.34351572 -0.58728707 -0.30258542 -0.22526799
000340 ef f9 13 bc f4 f6 9c bc 59 d2 2d be de 85 b5 bd
       -0.009031757 -0.019160725 -0.16974773 -0.08863424
000350 43 9d 56 bd 5f 9e d4 bc 96 0c 77 bc f3 c2 90 bc
       -0.05239607 -0.025954423 -0.015078684 -0.017671084
000360 96 6d 54 3d 28 87 b4 3e 7a 38 52 be b9 53 a2 3e
       0.05186232 0.35259366 -0.20529357 0.317045
000370 db 68 08 3e 1b c9 97 3e 1a 7f 27 3e 0d 38 a7 3e
       0.13321249 0.2964562 0.16357079 0.3265995
000380 0d 4e 41 3d b2 ae 03 3e 22 4e ad be 13 60 f4 bd
       0.047193576 0.1285961 -0.33848673 -0.11932387
000390 5d 4d 9e bd be 93 23 bd bb 67 ef bd 37 fa 2b bd
       -0.077295996 -0.03993582 -0.11689707 -0.04198667
0003a0 31 1a 81 3b 08 0e fd bd b4 0a 35 3e 4d 3a 80 bc
       0.00393989 -0.12356192 0.17679864 -0.0156528
0003b0 7e 64 bd 3c 8e 82 6e 3d 66 27 25 be 4a 3a 7e bd
       0.023119207 0.058229975 -0.1612831 -0.062067308
0003c0 35 64 8e 3e a1 a5 e3 be 17 8b a6 be 94 9a c1 3e
       0.27810827 -0.44462302 -0.32527992 0.37813246
0003d0 69 a1 f7 bd c4 bd 31 3d 0a d6 5b bd 56 a8 e5 bc
       -0.120913334 0.043393865 -0.05367092 -0.02803437
0003e0 67 a8 72 be 2c 62 46 3f f0 8d 74 3f 33 4d 07 c0
       -0.23697053 0.7749355 0.9552908 -2.1140869
0003f0 5d 97 15 3e 3d 6f 32 3e 8b b3 7d 3f ef 90 46 40
       0.14608522 0.17425247 0.99102086 3.102596

actor_mlp.0.bias f4 [64]
000000 16 4e b1 3f 3d b0 e4 bd 93 2a 3f be 33 d5 25 40
       1.3851955 -0.11166427 -0.18668585 2.5911376
000010 36 36 07 40 0b b5 1e bd 28 96 65 bf 78 a7 53 bf
       2.1126838 -0.038746875 -0.89682245 -0.8267741
000020 98 a5 7e bd b0 a9 d7 be 36 3d dc bd 61 1a ad bd
       -0.06216964 -0.4212165 -0.107538626 -0.08452297
000030 df e8 4e bf 59 40 83 bd 07 3d e2 bf 00 9a 4d bd
       -0.80824083 -0.06408758 -1.7674874 -0.050195694
000040 67 b0 50 bf 0f 69 c7 be 05 0e ca be ac 1f 65 40
       -0.8151917 -0.3894734 -0.3946382 3.580058
000050 ce d6 27 bc 23 0d b5 be 65 48 78 bd 61 c1 4a bd
       -0.0102440845 -0.35361585 -0.060615916 -0.049500827
000060 0d b9 43 bd 11 0d 94 bf 7f bb 02 bf 2a 82 80 bc
       -0.0477839 -1.1566488 -0.51067346 -0.015687067
000070 56 c5 29 c0 79 d4 e9 be 47 d8 fe be a4 dd b0 3e
       -2.6526694 -0.45669916 -0.49774382 0.34544098
000080 7b aa 8a 40 84 66 a8 3f 0c 54 a6 be 4c 86 c9 be
       4.3333106 1.3156285 -0.32485998 -0.39360273
000090 3e 56 9e bf cd d7 09 bf 38 1d 4e be e5 6c d6 bd
       -1.2370069 -0.5384491 -0.20128334 -0.10469989
0000a0 27 b7 2d bd 7c 1c e9 3f c2 c0 0e be 9b c1 b0 bf
       -0.042410996 1.8211818 -0.13940719 -1.3809084
0000b0 df a7 a6 be d5 a1 05 be b3 0a 3c bf 13 60 a9 bd
       -0.3254995 -0.13050015 -0.73453826 -0.08270278
0000c0 d0 ac 02 bf b4 ff 7f 3f 4d de b1 bf e0 c1 cb 3f
       -0.5104494 0.99999547 -1.3895966 1.5918541
0000d0 cc ca 03 be 5c 9f 5f bd 98 01 87 bd b7 33 15 bf
       -0.1287033 -0.054595336 -0.06592101 -0.58282036
0000e0 e5 98 79 40 42 a4 0a c0 40 4d 94 bd 2e 3f 68 bf
       3.899957 -2.1662755 -0.07241297 -0.90721405
0000f0 2e b0 f9 3e 95 11 25 bd 49 ce 0b bd 53 18 07 bf
       0.48767227 -0.04029997 -0.034132276 -0.5277149

actor_fair_mlp.1.weight f4 [32, 16]
000000 df cb 27 bf 38 8e e6 be a4 a9 0d bf 51 78 16 bf
       -0.6554546 -0.4503038 -0.55336976 -0.5877734
000010 14 32 98 bf 6b 37 55 be 02 a8 8b be a1 c0 ac be
       -1.1890283 -0.20821922 -0.27276617 -0.33740714
000020 94 12 c8 bd 27 39 23 bf 59 ed 3e bf d2 73 ca be
       -0.097691685 -0.6375908 -0.74580914 -0.3954149
000030 47 73 3b bf 9b 9f 89 bf 8a d2 71 bf 20 ea f8 be
       -0.73222774 -1.0751833 -0.9446188 -0.48616123
000040 d4 6d 04 be d1 31 ea 3d fd 5e 8a be a2 2a be bd
       -0.12932521 0.11435283 -0.27025595 -0.09285475
000050 e9 a5 66 be b9 80 31 be 4d f2 87 bd 7a d2 0e be
       -0.22524227 -0.1733426 -0.06638012 -0.13947478
000060 7a 23 6f 3c 1e e7 7c 3c 35 a5 5f bc c9 57 07 be
       0.014595861 0.015435962 -0.013650228 -0.13217081
000070 90 81 8d bd 39 42 18 be 79 3e 23 be 8a f9 05 3e
       -0.06909478 -0.14869012 -0.159418 0.13083473
000080 40 70 fb bf 82 e2 5e c0 cf 1d f8 3f 2d e4 d4 c0
       -1.9643631 -3.482575 1.9384097 -6.6528535
000090 60 0f 9b bf be c8 85 be 06 39 c2 bf 70 f5 fd 3d
       -1.2114067 -0.26129717 -1.5173652 0.12400329
0000a0 11 7a 1b bf 11 c3 97 be 4a 5e ae bf 35 16 72 3e
       -0.60733134 -0.2964101 -1.3622525 0.23641284
0000b0 f3 cc 32 3f b7 9d 80 3f ee 04 4d bf 2e fd 83 c0
       0.6984398 1.0048131 -0.8008565 -4.1246557
0000c0 6b f6 54 bf 04 23 97 3f 18 f3 66 bf d5 67 7c bd
       -0.83188504 1.1807561 -0.9021468 -0.06162246
0000d0 ec c4 3f c0 08 7c 48 3f 7d 8d a9 bf f7 be a6 bf
       -2.9963942 0.78314257 -1.3246304 -1.3027028
0000e0 3c f9 e8 bf 94 0b 1e 3f 30 cb f0 be fc e0 87 bf
       -1.820106 0.61736417 -0.4703002 -1.0615535
0000f0 c7 a7 ba bf 8d 6c 06 c0 11 6b 14 be 00 bb a3 3f
       -1.4582452 -2.1003754 -0.14493968 1.2791443
000100 42 c6 9f 3e 3b d6 e2 3d 59 1b a9 3e 18 9b d5 3e
       0.31205946 0.110760175 0.33028677 0.4171989
000110 f0 44 f4 bd 54 17 e7 bd d9 26 32 bd f8 f6 cb bd
       -0.11927211 -0.11283746 -0.04349408 -0.09959215
000120 9c 76 11 be 4e 64 c2 bd 2b da a6 bd 15 6a 95 bf
       -0.14205402 -0.09491788 -0.08147081 -1.1672999
000130 7d 0c 16 3f 4e 4b ad 3e fb 24 50 bf e3 76 49 3e
       0.58612806 0.33846515 -0.8130643 0.19674258
000140 dd 46 81 be 9e e4 38 3d 04 cf 32 be c2 97 87 bd
       -0.25249377 0.0451399 -0.17461783 -0.066207424
000150 eb 04 a7 be af fe c9 be 98 bb ee 3b ac ee 0e bd
       -0.3262094 -0.3945212 0.0072855465 -0.034895584
000160 6c 68 5e bc ed f2 6a be d6 f2 35 be 2f 2b 00 bd
       -0.013574701 -0.22944231 -0.17768416 -0.031291183
000170 27 84 2e be 4b 89 bd bb d2 b7 fd bd 65 ea e0 3d
       -0.170426 -0.005784189 -0.123885766 0.10982207
000180 56 da 81 bf 67 99 95 3c 88 37 bd 3d 69 9a 2a 3e
       -1.0144756 0.018261625 0.09239107 0.16660465
000190 00 3c c9 3d a2 fb 29 3e 93 3d 49 3e 98 fc 4d 3e
       0.09825897 0.16599897 0.19652395 0.20115888
0001a0 47 12 3b 3e 6d 18 90 3e ef 95 e8 bc de 2d fb bc
       0.18268691 0.28143635 -0.028391806 -0.03066152
0001b0 70 ec 18 be 86 5f b6 3c 03 51 25 c0 fb 14 39 be
       -0.14933944 0.022262346 -2.5830696 -0.1807441
0001c0 08 b5 cd bd e6 6a 09 bf 77 bb c0 be 2b 5f 01 bf
       -0.100442946 -0.5367874 -0.37643024 -0.5053584
0001d0 6f d6 06 be 80 50 1e be f5 01 aa be f6 68 8d be
       -0.13167737 -0.15460396 -0.33204618 -0.2761914
0001e0 e7 1b 05 3e f1 45 f8 3c 85 b1 09 be 7a b2 eb be
       0.12998925 0.030306788 -0.13446625 -0.46034604
0001f0 de 74 62 be 00 17 c5 bb 28 e1 eb bd aa f1 b3 be
       -0.22114894 -0.0060147047 -0.115175545 -0.35145313
000200 f9 50 8f 3f 88 f0 ad bb fc 6f b2 be d4 1d 42 3f
       1.1196586 -0.0053082146 -0.34851062 0.75826764
000210 b5 ef 58 c0 83 54 96 3e 40 14 43 c0 64 32 89 3f
       -3.3896306 0.29361352 -3.048111 1.0718503
000220 ba 94 2b 3e a7 31 a6 bf e6 b7 82 be ca 3c 61 bf
       0.16755953 -1.2983903 -0.25530928 -0.8798338
000230 ec 86 ef bf 1e 14 96 3e a7 94 d6 bf c6 a6 1e 3f
       -1.871305 0.29312223 -1.6764115 0.61973226
000240 cb c0 a9 3e 35 ca 8d bd 10 d8 25 c0 dd 63 80 3d
       0.33154902 -0.069233336 -2.5913124 0.062690474
000250 7e 57 f5 3d 79 4b b1 3c e3 a0 aa 3e a1 23 39 3e
       0.119795784 0.021642433 0.33325872 0.18079998
000260 94 82 17 3d f4 0c 8d 3e a7 59 08 bd ae ac 7d 3d
       0.036989763 0.27548945 -0.033288624 0.06193226
000270 3c 18 3b 3d 05 f5 c7 3d 8e 34 42 bb 23 40 88 bd
       0.04567741 0.09763531 -0.0029633376 -0.06652858
000280 df 59 8b 3f 8b 69 bb be 4d 1b 69 3e 41 bf 8d 3f
       1.0886801 -0.3660396 0.2276432 1.1073991
000290 a0 a4 1b be 74 42 47 bd d1 1e 74 c0 d1 c8 98 bf
       -0.15199518 -0.04864736 -3.814381 -1.1936284
0002a0 f6 bb 82 be 29 ec 2f 3e 14 c0 61 bf 13 85 48 3e
       -0.25534028 0.17179932 -0.8818371 0.19582014
0002b0 49 98 62 c1 03 f1 be 3e fc 84 b6 be 20 f5 9b 3d
       -14.162179 0.37293252 -0.35648334 0.07615113
0002c0 c1 d3 b6 c0 e4 78 04 c1 10 7c a2 c0 45 1e 2a c1
       -5.713349 -8.279514 -5.0776443 -10.63239
0002d0 16 20 00 40 af 44 4f c0 26 f5 00 bf 92 01 81 c0
       2.0019584 -3.238567 -0.50374067 -4.0314417
0002e0 59 19 86 c0 85 e2 7f bf 2f 2b 14 c1 27 5f 3f 3f
       -4.190594 -0.99955016 -9.260543 0.74754566
0002f0 12 ff 49 be a4 08 f0 3f be a2 cb bf b9 0f c6 3f
       -0.19726208 1.8752637 -1.590904 1.5473548
000300 2b 20 2a be 92 ec 4a be 73 f4 90 be e4 71 73 be
       -0.16613834 -0.19816807 -0.283115 -0.23773915
000310 5e ac 2b 3d 88 4c 82 be ae e9 82 bd 86 cf 31 be
       0.04191243 -0.25449014 -0.06392227 -0.1736432
000320 e9 e5 a1 3c 8f 13 c8 bd 33 36 67 be d9 97 37 be
       0.01976295 -0.097693555 -0.22579269 -0.17929019
000330 10 84 55 be ca cf d6 bd 80 21 72 3d f2 2b 86 be
       -0.20851159 -0.10488851 0.05911398 -0.26205403
000340 56 d7 2f 3e ea 36 59 3e cc fb 54 bf c1 cb ab 3d
       0.17171988 0.21212354 -0.8319671 0.08388472
000350 bc e8 74 3e c7 5e 07 bd 0d 66 6a bd 21 fe 4b bf
       0.23916906 -0.03304937 -0.05722623 -0.79684645
000360 dd 78 76 be 71 58 23 bf 68 1c 9d 3e d2 66 32 bd
       -0.24069543 -0.63806826 0.30685735 -0.04355509
000370 4c c5 cf 3e 0c bd 4d be c5 48 72 c0 4e b8 10 bd
       0.40580213 -0.20091647 -3.7856915 -0.035332017
000380 56 ee 15 c0 32 07 ca be d1 ba 4e 3f c3 0d bd 3d
       -2.3426719 -0.39458615 0.8075381 0.092311405
000390 35 4e 11 bf 51 86 a9 bf e6 1a b9 c0 c6 c3 1b bf
       -0.5675996 -1.3244115 -5.7845335 -0.608456
0003a0 09 4e a3 3d cb 03 11 3f 31 b9 12 bd df 23 15 c0
       0.079738684 0.5664641 -0.035821144 -2.3303144
0003b0 f1 97 c6 3d 2d 89 b3 bc 85 d7 9b 3e 09 c4 fb c0
       0.09696949 -0.021915996 0.30437866 -7.86768
0003c0 1e e4 2e 3e 7f 5e e5 3e 36 2a 0f 3d 47 87 a6 3d
       0.17079207 0.44798657 0.034952365 0.08131271
0003d0 3c cf 94 bd fb ea e3 be 8c ac 01 bf 98 d3 0e bf
       -0.07266089 -0.44515213 -0.5065391 -0.55791616
0003e0 c9 e4 dd be 21 f3 96 3e d1 25 20 3e 2d 00 c3 bd
       -0.43338612 0.29482368 0.15639426 -0.09521518
0003f0 12 54 97 be 0d 9f 81 bd e5 3f 60 be 80 55 90 bd
       -0.29556328 -0.06329165 -0.21899374 -0.07047558

actor_fair_mlp.1.bias f4 [32]
000000 ac 6e 9e 3e 64 37 51 bd 1a 0b 1e bf d6 ed 0b 40
       0.3094381 -0.051078215 -0.6173569 2.1863914
000010 9b 8a e6 3e a8 00 9f be 24 c8 df 3f 87 5b 8d bd
       0.45027623 -0.31055188 1.7482953 -0.06902223
000020 fd e2 10 40 fa f8 6d 3f 17 10 00 3e 75 ff bb be
       2.2638543 0.92958033 0.12506138 -0.36718336
000030 13 5a 88 be fb db 03 40 84 af 4e 40 c3 19 e6 3f
       -0.2663122 2.0603015 3.2294626 1.7976612
000040 55 50 fa bd 7f 5c e0 be a2 e8 81 3f 00 ec b3 be
       -0.12222353 -0.4382057 1.0149119 -0.3514099
000050 a8 b0 00 40 a5 a0 aa be d2 50 6c be 77 b1 75 40
       2.0107822 -0.33325687 -0.23077706 3.8389566
000060 48 14 91 3f 2a b0 90 be e6 27 26 40 ab 9a d0 bd
       1.1334314 -0.28259403 2.5961852 -0.101857506
000070 a2 ba 89 bf f5 86 11 40 cc 1f c9 be b1 c1 49 40
       -1.0760081 2.2738621 -0.39282072 3.152447

actor_last_layer.0.weight f4 [64, 96]
000000 1a b8 06 be f4 b7 8e 3c 58 d6 23 bd cc 52 c3 bd
       -0.13156167 0.0174217 -0.039999336 -0.095372766
000010 77 b5 62 be 90 f3 96 bc 13 f3 7c bd 5c 5c 40 bd
       -0.22139536 -0.018426687 -0.06175525 -0.04696308
000020 48 b7 af bd 97 2d 22 bd 1e 58 81 3d 76 0e cf bd
       -0.0857988 -0.03959426 0.06315635 -0.1011018
000030 d3 c9 18 3d 5e 5c 08 bd 76 4c ec bd 98 a4 36 3d
       0.03730185 -0.033291213 -0.11538021 0.044590563
000040 b9 c3 24 bc d7 0b ad bd d6 d4 b6 bd f4 03 07 be
       -0.01005643 -0.08449524 -0.08927314 -0.13185102
000050 0c 12 d0 bc da 63 bd bd 9a 71 87 bc 78 d9 84 3d
       -0.02539923 -0.09247561 -0.016533662 0.06486791
000060 a6 0e b1 3d e9 ea 98 bd 60 21 73 3c 64 bd 67 3d
       0.08645372 -0.074666806 0.0148395 0.0565771
000070 60 77 de 3b 07 08 02 bc c8 d2 c1 bc 30 06 cd bd
       0.006789133 -0.007936484 -0.023660079 -0.10010946
000080 b8 c8 23 be 30 a8 34 be 5d 09 29 bd c4 77 bf bd
       -0.15994537 -0.17642283 -0.041268695 -0.09349015
000090 33 2b 9c bc 30 cd 64 bd f8 a2 40 3d 89 b4 e3 bd
       -0.019063568 -0.055859745 0.04703042 -0.11118419
0000a0 82 86 9f bd b3 3d 57 be a4 f8 a6 bc ae c7 fe bd
       -0.07789327 -0.2101963 -0.020382233 -0.1244043
0000b0 0c d9 69 bd d0 74 12 bd 29 7c 64 bd 0b f9 3c bd
       -0.057091758 -0.035755932 -0.05578247 -0.046135943
0000c0 44 9a 08 bd 1a 46 9d bd 0b d8 f8 bb 6a c6 23 be
       -0.033350244 -0.076793864 -0.0075941137 -0.15993658
0000d0 c4 f7 d8 bc f3 d9 2b 3c 58 cc 00 bd bc cd f9 b8
       -0.026485331 0.010488975 -0.031444877 -0.00011911566
0000e0 24 24 4f 3d de fa 02 3e 58 c6 35 3d 84 ce fa 3d
       0.050571576 0.1279101 0.04437861 0.12246421
0000f0 b7 c4 18 be 18 69 a4 3d be ba 1d be ec c2 bd bd
       -0.14918791 0.080278575 -0.15403268 -0.09265694
000100 0f 1d 58 bd 24 ec 9d 3c 02 85 12 be fb 74 90 bd
       -0.052762087 0.01927764 -0.14308551 -0.07053562
000110 fe ae 18 bc f4 83 66 3d 12 e3 c1 3c 6e c6 84 3c
       -0.009319065 0.056278184 0.023667846 0.0162079
000120 f9 69 73 bd db c4 af bc 9b 51 d7 bd 65 45 50 bd
       -0.059427235 -0.021456173 -0.10513612 -0.05084743
000130 96 2d 51 3d f1 97 02 be 6e a3 06 bd d5 fc 72 bd
       0.051068865 -0.12753274 -0.032870702 -0.05932315
000140 64 50 a2 3c 30 73 83 bd f9 5b 33 bd d5 8a 0f bd
       0.019813724 -0.06418455 -0.043788884 -0.03504451
000150 c9 f1 8e bd 2d b7 56 bd e6 be 3c be c4 26 8f bd
       -0.069797106 -0.052420784 -0.18432197 -0.06989816
000160 72 32 14 3d e8 0b c8 3c ec 6c 2a bc 78 18 85 bd
       0.03618092 0.02441974 -0.010401946 -0.06498808
000170 96 a8 89 bd 17 3d 14 be e1 d2 8e 3c 6d c1 89 bd
       -0.06721608 -0.14476429 0.01743454 -0.06726346
000180 b3 00 07 c0 74 86 8f bc 6d 12 9c be f9 17 0a 3f
       -2.1094177 -0.017520167 -0.30482808 0.5394283
000190 f0 0e 73 3c 34 a1 00 3c 03 f6 93 3e 5f 66 ea bd
       0.014835104 0.007850934 0.2889863 -0.11445307
0001a0 87 ff 13 be a0 a3 3b 3d c2 b0 5b 3d cd bf 8b bd
       -0.14452945 0.04581034 0.053635366 -0.068236925
0001b0 2d 89 30 bd 21 40 a4 bd 6f 87 b3 3f a5 3e 99 bf
       -0.04309957 -0.08020044 1.4025706 -1.1972243
0001c0 b0 21 58 bf 2a 36 14 be bf 5b a8 bf 8a ec 4b bf
       -0.84426403 -0.14473787 -1.3152999 -0.79657805
0001d0 97 31 0a be ef f7 51 3e cf 9e 7e 3e 51 69 eb bc
       -0.1349548 0.20504735 0.24865268 -0.028736742
0001e0 20 b4 be 3c 0e fa aa 3e 51 fe 1f 3e 3e 66 15 3d
       0.02327925 0.33393902 0.15624358 0.03647446
0001f0 3a cf 3b be 7a 10 8b 3e 6d 0d e3 bd 6d f3 85 3f
       -0.1834077 0.27161008 -0.11086545 1.0464913
000200 8b 84 0c 3e c2 88 b0 bf 2c f2 23 be 85 8d 94 3c
       0.13722436 -1.3791735 -0.1601035 0.018133888
000210 14 74 87 bf 6f c6 d6 bd 41 25 36 bd 6a b5 9d c0
       -1.0582299 -0.10487067 -0.04446912 -4.9283953
000220 89 00 0b be e0 49 09 bf 07 b8 6b be 1a 01 2f bf
       -0.13574423 -0.5362835 -0.2301942 -0.68361056
000230 d9 4a 23 be c0 2e 3f bd a9 d4 4d 3d 68 56 cb 3c
       -0.15946521 -0.046675444 0.050251637 0.024821475
000240 09 e4 96 be 48 b4 74 bf 69 dd c9 bf f2 a1 a8 be
       -0.29470852 -0.9558759 -1.5770694 -0.32936054
000250 5a 27 ac 3c c3 33 34 3f 91 66 00 be 4f 7a 22 bf
       0.021014858 0.7039148 -0.12539126 -0.6346788
000260 01 8b a2 bf 18 ee d7 bc 24 31 b8 3d ce 5b f6 be
       -1.2698671 -0.02635865 0.08993748 -0.48116916
000270 e5 4c 09 be 3c 40 8b 3d 43 f0 84 3e fd 86 50 bc
       -0.13408239 0.06799361 0.25964555 -0.012727496
000280 1d 12 cc be 96 05 14 be 16 76 f9 3f 31 95 0b c0
       -0.3985757 -0.14455256 1.9489162 -2.180981
000290 13 f7 6c 3e bd 2c ac bd a1 86 21 40 81 72 b5 be
       0.23141126 -0.08406971 2.523842 -0.35438922
0002a0 ac 4c a1 c0 79 10 da bd 85 f8 0e 3f 9b e3 86 bf
       -5.0406094 -0.10647673 0.5584796 -1.053821
0002b0 18 3a ff bc 9e 3a ea bf 7e c8 58 c0 b0 6e 29 c0
       -0.031155631 -1.8299139 -3.387237 -2.6473808
0002c0 0e 4c 9c bd 3a d6 27 40 7e da a4 bc 28 b0 3f be
       -0.07631694 2.6224504 -0.020123716 -0.18719542
0002d0 c2 cc f4 c0 1d e8 05 c0 ad 9a 16 40 51 18 64 c0
       -7.649995 -2.092292 2.3531907 -3.5639842
0002e0 06 69 c4 3e 48 0c 8d 3d a9 91 8f c0 78 ea 09 be
       0.38361377 0.06887108 -4.486531 -0.13468349
0002f0 25 88 01 bf 1d 1d aa 3f a6 b3 4e be 54 78 79 bf
       -0.50598365 1.3290135 -0.20185718 -0.9744923
000300 59 26 08 bf 78 81 90 bd 5d 7f 08 be a6 d5 00 be
       -0.53183514 -0.07055944 -0.13329835 -0.125815
000310 f0 8f 09 be 80 c5 47 3b ed 3e e3 3c c4 bb b1 bd
       -0.13433814 0.003048271 0.027739966 -0.086783916
000320 00 e4 2f 3c f0 99 68 3d f0 ff b9 bc 50 07 7a 3d
       0.010735512 0.05678743 -0.022705048 0.06104213
000330 67 f4 e3 bd a8 80 3f 3d 52 c2 ad bd a4 be 27 3d
       -0.111306004 0.046753556 -0.08484329 0.040953293
000340 e6 59 15 be 38 ca bc 3c c9 c7 a5 bd 32 4c 2b be
       -0.14585075 0.023045644 -0.080947466 -0.16728285
000350 98 03 ed bc d5 5b 6c bd 17 ad 14 be b2 b8 b2 3d
       -0.028932378 -0.057704765 -0.14519154 0.08726634
000360 f4 22 4c 3d b0 94 2f bd ac f9 2a 3d 0b d1 22 bd
       0.04983802 -0.04286641 0.041742012 -0.03975014
000370 7b cf 71 bd d2 9b 04 bd a0 29 8f bc 25 5e 99 bd
       -0.05903576 -0.032375164 -0.017475903 -0.0748866
000380 1b 7f 10 be 36 5e 61 bd 4e 86 14 bd c0 a6 97 ba
       -0.14110987 -0.055021487 -0.036260895 -0.0011570081
000390 57 d2 5f bd 5c f3 3b 3d 66 3a 3d bd 1d 4d 8d be
       -0.054643955 0.045886382 -0.04619827 -0.27597895
0003a0 33 ff 22 bd d3 0d 88 be 6a 67 8d 3d 36 e0 f6 bd
       -0.03979416 -0.26573047 0.0690449 -0.120544836
0003b0 ba 56 09 bd c4 d6 04 3d 28 40 97 bd ce 73 be 3d
       -0.033529975 0.03243138 -0.07385284 0.09299432
0003c0 e0 6e 49 3b 9d 2e 3f be 62 8e f8 bd 5f ea b1 bd
       0.0030736253 -0.18670125 -0.12136532 -0.08687281
0003d0 a4 5d d0 bd b0 6f 4b be cc e7 1d 3d c2 64 c2 bd
       -0.101741105 -0.19866824 0.038551137 -0.09491874
0003e0 70 2d 05 3d c2 5e ca 3d d0 46 e0 3b 0b 7d 23 bd
       0.032514036 0.09881355 0.006844379 -0.039914172
0003f0 32 66 74 bd 5c 1e b8 3c 3c 0e f4 bd e9 62 d0 bd
       -0.059667774 0.022475414 -0.119167775 -0.101751156

actor_last_layer.0.bias f4 [64]
000000 a5 b7 64 be 7b 14 ce 3d 5c 1a e0 be 25 f4 8f bf
       -0.2233568 0.100625 -0.4377011 -1.1246382
000010 34 a3 a3 bf 8c b4 37 bf 4d a1 5d 40 7f a7 4b be
       -1.2784181 -0.7175987 3.46297 -0.19888113
000020 2d 1b a5 3f 92 08 a5 c0 be 55 e5 be 25 d2 48 be
       1.2898918 -5.157296 -0.4479198 -0.19611414
000030 d2 3a 04 c0 e3 32 56 bf df c7 41 c0 ea 5e d9 bf
       -2.06609 -0.83671397 -3.0278242 -1.698209
000040 9e 26 49 c0 05 23 16 bf f6 5f 2d be 04 7d 44 bf
       -3.142982 -0.58647186 -0.16931137 -0.7675326
000050 c1 24 88 bf 8c 2a bf 3f 8c 76 bb 3f 50 cb be be
       -1.0636216 1.4934859 1.4645553 -0.3726449
000060 c6 ff 25 40 31 89 06 bf 67 5d 53 c0 5e d5 e7 bf
       2.5937362 -0.5255309 -3.3025758 -1.811199
000070 10 1c 64 c0 16 51 49 be e8 29 09 3f 8e fe 1f bf
       -3.5642128 -0.19659838 0.5357957 -0.62497795
000080 6c ec e3 bf 8d 9d 5f 40 7c e9 2a bf 26 6b d6 bf
       -1.7806525 3.4939911 -0.6676252 -1.6751449
000090 0b f0 12 bd 03 cd 4b c0 2d bf a5 be e1 7f 83 40
       -0.035873454 -3.184388 -0.32372418 4.10936
0000a0 74 aa fb bf ab 63 1e c0 7f 8f 9c 3b ad 26 50 be
       -1.9661393 -2.4748333 0.0047778483 -0.20327254
0000b0 ec 07 59 40 99 38 3e c0 7b 14 32 bf fa 40 cb bf
       3.3911085 -2.9722044 -0.695625 -1.5879204
0000c0 e0 12 31 bf fa 31 7a c0 15 9c 85 3f 9a 64 1c 40
       -0.69169426 -3.9093003 1.0438257 2.4436402
0000d0 11 bf da be bc d2 09 bf 4c b8 21 40 03 e6 00 40
       -0.42723897 -0.5383718 2.5268736 2.0140388
0000e0 e0 5b 0c 40 cb a6 cc bd 86 18 92 bd 32 50 dd be
       2.1931076 -0.09992751 -0.07133584 -0.43225247
0000f0 85 b4 0b c0 5c e8 9c bf 73 84 0d c0 52 df d6 be
       -2.182893 -1.225841 -2.211209 -0.41967255

actor_last_layer.2.weight f4 [16, 64]
000000 cc dc 99 bd 93 7f 30 bf f5 8a 93 be e4 00 94 3e
       -0.07512817 -0.6894466 -0.28816953 0.2890693
000010 fd 92 18 3e d8 e2 ba bc ee b5 83 3d 09 4a a1 bd
       0.14899822 -0.022813246 0.06431185 -0.07875449
000020 c4 6e ae 3d 52 bf 34 3f fd 7f 54 bd 86 91 1a be
       0.085172206 0.7060443 -0.05187987 -0.15094575
000030 11 2f 1f 40 b7 99 ff bd 7d 77 e7 3c 30 2c 86 bf
       2.4872477 -0.12480491 0.028255219 -1.0482235
000040 0e 63 96 bc d6 68 b2 bd d6 23 b5 bd 18 39 e3 be
       -0.01835778 -0.08711402 -0.08844726 -0.44379497
000050 2b d0 5f 3f d3 1e 91 bd 24 06 95 3e 80 4b 6e be
       0.87427014 -0.070859574 0.29106247 -0.23270988
000060 33 d4 90 3d b0 5a 0a 3e 58 4d 04 3d 41 11 64 bd
       0.07071724 0.13511157 0.032300323 -0.055680517
000070 a1 e7 9d 3d a0 f1 26 bd 77 22 57 bd 7b f1 8b bd
       0.07710195 -0.040757775 -0.052523103 -0.06833168
000080 d9 92 db 3e f4 07 10 bc 98 4c e6 3d 6c 82 bb bf
       0.42885473 -0.008790959 0.11245078 -1.4649177
000090 8f 7d a7 bd 32 25 49 3e da 67 52 3e fa ee b9 bd
       -0.08178245 0.19643095 0.20547429 -0.09078784
0000a0 7e f6 83 3d 14 57 64 bd 79 cb f4 be df 84 c8 bd
       0.06443499 -0.055747107 -0.47811487 -0.09790968
0000b0 58 d9 8d bc b9 cd 16 bf ce 9f c5 3e c6 f4 98 3d
       -0.017315552 -0.5890766 0.38598484 0.07468562
0000c0 37 fe 8c 3e f4 d1 43 3e ec 1f 5d 3e d7 99 8c be
       0.275377 0.1912306 0.21594208 -0.2746112
0000d0 97 0d 8f bd fb 63 b1 3d 25 67 18 3e 89 3e 25 be
       -0.06985014 0.08661648 0.14883097 -0.16137137
0000e0 b0 00 8b bf e6 a2 5c 3d af 62 8f be 2d b1 aa 3e
       -1.0859585 0.05386629 -0.28004977 0.333383
0000f0 2e b2 22 bf 28 ca 72 be 74 61 04 3f 4a c8 b6 be
       -0.6355313 -0.23709929 0.517112 -0.35699683
000100 39 88 c1 3d 5a 9c ad bc 6b 53 72 3e c5 50 fe bd
       0.094498105 -0.021192718 0.23664634 -0.12417749
000110 7b 9c b4 3d 8b 8a 88 3e 79 a3 27 3d 38 d5 38 bd
       0.08818909 0.266682 0.040927384 -0.045125216
000120 d7 ff cc 3d ef fd a8 3d 03 df 4d 3d d1 24 99 bd
       0.10009735 0.08251559 0.05026151 -0.07477725
000130 7c 0e 28 c0 72 63 47 be 66 19 ec bf c2 e2 44 bd
       -2.625884 -0.19471529 -1.8445251 -0.048067816
000140 57 ad 1f be ba 7f 67 3d a1 2f be 3d ba 00 d3 be
       -0.15593468 0.056518294 0.09286428 -0.41211492
000150 ad 8e ed be 97 4e 04 bf d7 eb 5a 3f 61 86 b7 3d
       -0.46397915 -0.5168242 0.85516113 0.089611776
000160 99 98 07 3e 13 59 c6 3e f8 7f c4 bc 5c 33 de bb
       0.13241805 0.38739833 -0.023986802 -0.006781025
000170 b3 6f cc 3e 64 54 0e 3d 7a aa 0f bd ff 4f 9d be
       0.3992897 0.03474845 -0.03507469 -0.30725095
000180 2c 25 5e be b2 94 2d 3e bd bf 9a 3e 86 f9 48 3f
       -0.21693867 0.16951254 0.3022441 0.7850574
000190 5a 47 d5 bc d5 a8 aa 3d d2 db 34 3e b7 4f 86 be
       -0.026035 0.083329834 0.1766198 -0.26232693
0001a0 3b 39 86 39 d0 4e fa bd 35 e1 ab 3e 5c 60 3c 3d
       0.00025601112 -0.122220635 0.33570257 0.045990333
0001b0 99 a4 aa 3d 8e d9 13 3f d2 91 1f be fa e8 91 be
       0.08332176 0.5775384 -0.1558297 -0.2849806
0001c0 f2 09 e6 3d 34 5f 3e 3d 53 13 00 40 ba 43 0e 3f
       0.11232366 0.04647751 2.0011795 0.5557209
0001d0 4f a6 db bc f6 59 ad bd ba 03 17 3e f9 39 73 3e
       -0.0268127 -0.08464424 0.14747515 0.23752584
0001e0 24 f2 86 3e 6f e5 87 bd 86 aa 4a 3e 64 41 36 3e
       0.26356614 -0.06635558 0.19791612 0.17798382
0001f0 52 1a 3f c0 f6 78 1f bf 8c 3f 19 bf 03 f3 ac 3e
       -2.9859815 -0.62293947 -0.5986259 0.33779153
000200 c8 c6 c7 bc bd 22 90 3f 68 18 4b bd 7a 09 2c 40
       -0.024386778 1.1260601 -0.049583822 2.6880784
000210 9c 4c f5 3d 56 84 8c be 8d 74 b1 3d 48 31 0a be
       0.11977503 -0.27444714 0.086648084 -0.13495362
000220 d8 39 80 3b 5a 60 19 bf 41 4c aa be f5 12 29 be
       0.0039131455 -0.59912646 -0.33261302 -0.16511138
000230 59 94 1e 40 ed da 99 bd 0c 3f 4d 3f 39 05 96 3d
       2.4778044 -0.0751246 0.80174327 0.07325215
000240 ff 8e 6c bc e9 a8 1c bc d3 d8 18 be 29 69 f7 3d
       -0.01443839 -0.009561756 -0.14926462 0.120806046
000250 c0 53 58 3c c2 57 da be b3 c6 ad bd 52 c2 d7 be
       0.013203561 -0.4264508 -0.084851645 -0.42140442
000260 f9 6f 31 bd ac a9 c3 3e 69 ae 53 3d 30 f5 01 3f
       -0.043319676 0.38215387 0.051680002 0.5076475
000270 d1 5d 0d be 85 ca 23 bd d4 70 8e 3c 43 ac 10 be
       -0.1380532 -0.03998806 0.017387785 -0.14128213
000280 56 bf 16 3d e6 73 aa bc 25 ed 9f bd 91 a4 12 bf
       0.036803566 -0.020807218 -0.078089036 -0.5728236
000290 16 40 9e b8 77 3f fc bd 02 89 5a be df 0e 64 3f
       -7.545964e-05 -0.123167925 -0.21341327 0.8908519
0002a0 47 2d 35 3f 4e 95 8b bd 77 85 65 3e e3 0c 24 3c
       0.7077221 -0.06815587 0.22414194 0.010012838
0002b0 40 e6 35 3d 8c ba f8 be c8 e1 82 3e 76 fe 18 3f
       0.044409037 -0.48579824 0.25562882 0.59763277
0002c0 a3 2a 94 be 7a 7f 1c 3f 68 d9 2d 3c 56 3e 8a 3d
       -0.2893878 0.61132014 0.010610916 0.06750171
0002d0 2d ac c5 be e3 44 a8 bc 53 58 cd 3b d8 00 ac 3d
       -0.38607922 -0.02054066 0.0062666326 0.083985984
0002e0 b0 c9 80 bc 51 3e c2 bd 22 b5 52 bd 67 30 7c be
       -0.015721172 -0.09484542 -0.051442273 -0.24627839
0002f0 fe 95 38 bf 41 72 3e bd a8 60 80 3d e9 74 60 be
       -0.7210387 -0.04649568 0.06268436 -0.21919598
000300 2f e5 f6 3d 1d b4 33 bf f7 81 1e 3e e7 5e 94 be
       0.12055432 -0.70196706 0.15479265 -0.28978655
000310 57 c8 76 3d cf 5f 53 3e 4a 84 79 bd 01 8f ff bc
       0.060249653 0.20642017 -0.060917176 -0.03119612
000320 0d b0 22 bc 06 e7 8d 3f e7 03 95 be 80 7a 8e ba
       -0.009929669 1.1086128 -0.2910454 -0.0010870248
000330 a4 40 04 40 66 b3 6b be 46 9f e3 3f dd a6 00 3e
       2.0664454 -0.23017654 1.7782981 0.12563653
000340 bb 8d 14 3d 12 82 b8 3d 23 42 c8 3d 88 b8 9c 3d
       0.036267977 0.09009184 0.097782396 0.07652384
000350 c8 b9 e3 3d 4c 6d 56 bf 90 2b ee be b5 c3 5d 3e
       0.11119419 -0.83760524 -0.4651761 0.21656688
000360 8b 0c b9 bd 90 79 93 3c 44 d7 a4 bc 5f eb 4f 3e
       -0.090355955 0.018002301 -0.020122178 0.2030463
000370 16 91 b9 be b9 1b f1 3d 9a f9 ae bd be d8 15 3b
       -0.36243504 0.11772866 -0.085437015 0.0022864784
000380 54 03 91 be 6c 09 fe bd 09 9e a9 3e 54 6d be be
       -0.28322852 -0.12404141 0.33128384 -0.37192786
000390 35 b0 4c 3c 77 45 8e bd 51 81 f2 be ae f2 15 bf
       0.012493183 -0.06946843 -0.47364286 -0.58573425
0003a0 bb 24 80 3d b2 8f b2 bd ed 8d 54 bb 68 42 c3 3d
       0.06257006 -0.08718814 -0.0032433227 0.0953415
0003b0 d2 2e b7 bc 03 48 01 3f 90 55 a3 bd a0 2b 45 be
       -0.022361193 0.50500506 -0.07975304 -0.19254923
0003c0 43 f2 42 3c 8c e4 86 be 16 3d 2c 3e f5 7b 70 be
       0.01189858 -0.26346242 0.16820177 -0.23484786
0003d0 64 6a 87 3d 9e 24 59 3d 07 8b ab 3d 61 80 04 3e
       0.06612089 0.053013436 0.08376127 0.12939598
0003e0 5d 6e 0a bc 98 10 23 bd de 5c b8 bd c6 f0 ab 3e
       -0.008449164 -0.039810747 -0.09002088 0.33582133
0003f0 df e6 78 bf d7 1c 33 3f e7 24 d4 3d 32 12 ae be
       -0.9722728 0.6996588 0.10358601 -0.33998257

actor_last_layer.2.bias f4 [16]
000000 71 6f 45 bf 9b 83 d4 3d b7 10 58 bf c0 c1 31 40
       -0.7712317 0.10376664 -0.84400505 2.7774506
000010 ce 3a 0e 3c 9a 05 54 3f 7b 70 40 3e 43 dc 85 be
       0.008681012 0.8282105 0.18792908 -0.2614461
000020 c5 ce be 3e a0 e7 07 3d 4c f9 85 be 05 58 20 bf
       0.37267128 0.03317988 -0.2616676 -0.6263431
000030 f8 ac 41 3e 30 79 49 bf 77 17 06 bf 9c f5 a4 bf
       0.18913639 -0.7870054 -0.52379555 -1.2887454
